…
  layer_max_pooling_2d(pool_size = c(2, 2)) %>%
  
  # Flatten and fully connected
  layer_flatten() %>%
  layer_dense(units = 128, activation = "relu") %>%
  layer_dropout(0.5) %>%
  layer_dense(units = 10, activation = "softmax")

summary(model)
```

## Slide 75: CNN Summary Output
```{r cnn-summary, echo=FALSE, eval=TRUE}
# Display typical CNN summary as text
cat("Model: sequential\n")
cat("_____________________________________________________________\n")
cat("Layer (type)              Output Shape         Param #\n")
cat("=============================================================\n")
cat("conv2d (Conv2D)           (None, 26, 26, 32)   320\n")
cat("max_pooling2d (MaxPool2D) (None, 13, 13, 32)   0\n")
cat("conv2d_1 (Conv2D)         (None, 11, 11, 64)   18,496\n")
cat("max_pooling2d_1           (None, 5, 5, 64)     0\n")
cat("flatten (Flatten)         (None, 1600)         0\n")
cat("dense (Dense)             (None, 128)          204,928\n")
cat("dropout (Dropout)         (None, 128)          0\n")
cat("dense_1 (Dense)           (None, 10)           1,290\n")
cat("=============================================================\n")
cat("Total params: 225,034\n")
cat("Trainable params: 225,034\n")
cat("\n")
cat("Compare to fully connected:\n")
cat("28x28 = 784 inputs -> 128 hidden = 100,352 params (first layer alone!)\n")
```

**CNN uses 2x fewer parameters** for the entire network!

## Slide 76: What Do CNN Filters Learn?

**Hierarchical Feature Learning:**
…
